Model
Model: "sequential_4"
________________________________________________________________________________
Layer (type)                        Output Shape                    Param #     
================================================================================
embedding_4 (Embedding)             (None, 30, 16)                  320016      
________________________________________________________________________________
conv1d_4 (Conv1D)                   (None, 13, 32)                  2592        
________________________________________________________________________________
global_max_pooling1d_4 (GlobalMaxPo (None, 32)                      0           
________________________________________________________________________________
dense_9 (Dense)                     (None, 64)                      2112        
________________________________________________________________________________
dense_8 (Dense)                     (None, 1)                       65          
================================================================================
Total params: 324,785
Trainable params: 324,785
Non-trainable params: 0
________________________________________________________________________________


