Model
Model: "sequential_3"
________________________________________________________________________________
Layer (type)                        Output Shape                    Param #     
================================================================================
embedding_3 (Embedding)             (None, 30, 16)                  320016      
________________________________________________________________________________
conv1d_3 (Conv1D)                   (None, 14, 32)                  1568        
________________________________________________________________________________
global_max_pooling1d_3 (GlobalMaxPo (None, 32)                      0           
________________________________________________________________________________
dense_7 (Dense)                     (None, 64)                      2112        
________________________________________________________________________________
dense_6 (Dense)                     (None, 1)                       65          
================================================================================
Total params: 323,761
Trainable params: 323,761
Non-trainable params: 0
________________________________________________________________________________


