Model
Model: "sequential"
________________________________________________________________________________
Layer (type)                        Output Shape                    Param #     
================================================================================
embedding (Embedding)               (None, 30, 16)                  320016      
________________________________________________________________________________
conv1d (Conv1D)                     (None, 28, 32)                  1568        
________________________________________________________________________________
global_max_pooling1d (GlobalMaxPool (None, 32)                      0           
________________________________________________________________________________
dense_1 (Dense)                     (None, 64)                      2112        
________________________________________________________________________________
dense (Dense)                       (None, 1)                       65          
================================================================================
Total params: 323,761
Trainable params: 323,761
Non-trainable params: 0
________________________________________________________________________________


