Model
Model: "sequential_5"
________________________________________________________________________________
Layer (type)                        Output Shape                    Param #     
================================================================================
embedding_5 (Embedding)             (None, 30, 16)                  320016      
________________________________________________________________________________
conv1d_5 (Conv1D)                   (None, 12, 32)                  3616        
________________________________________________________________________________
global_max_pooling1d_5 (GlobalMaxPo (None, 32)                      0           
________________________________________________________________________________
dense_11 (Dense)                    (None, 64)                      2112        
________________________________________________________________________________
dense_10 (Dense)                    (None, 1)                       65          
================================================================================
Total params: 325,809
Trainable params: 325,809
Non-trainable params: 0
________________________________________________________________________________


