Model
Model: "sequential_2"
________________________________________________________________________________
Layer (type)                        Output Shape                    Param #     
================================================================================
embedding_2 (Embedding)             (None, 30, 16)                  320016      
________________________________________________________________________________
conv1d_2 (Conv1D)                   (None, 24, 32)                  3616        
________________________________________________________________________________
global_max_pooling1d_2 (GlobalMaxPo (None, 32)                      0           
________________________________________________________________________________
dense_5 (Dense)                     (None, 64)                      2112        
________________________________________________________________________________
dense_4 (Dense)                     (None, 1)                       65          
================================================================================
Total params: 325,809
Trainable params: 325,809
Non-trainable params: 0
________________________________________________________________________________


